model_checkpoint.pth (torch, 24695 bytes, 4 tensors)

hidden.weight f4 [128, 13]
0	0xbcd76255	-0.026292006
1	0x3df61208	0.12015158
2	0x3e1d11fe	0.15338895
3	0xbbccde58	-0.0062520914
4	0x3dbeb4ff	0.09311866
5	0xbe2ee642	-0.17080024
6	0x3e5aa377	0.2135142
7	0xbe7b6140	-0.24548817
8	0x3d9605ec	0.07325348
9	0xbdc6ab01	-0.09700585
10	0xbd45fdd0	-0.048337758
11	0xbc0ef0e7	-0.008724428
12	0xbc3070de	-0.010769097
13	0x3e709a97	0.23496471
14	0xbe63642f	-0.22206186
15	0x3c99091f	0.018681107
16	0x3dae6b37	0.08516543
17	0x3e101bbd	0.14073081
18	0x39888017	0.00026035376
19	0x3cc18971	0.023625107
20	0x3e82eb23	0.2557002
21	0xbe7b7fa4	-0.2456041
22	0xbe5eb3f2	-0.21748331
23	0x3e8f7eda	0.28026468
24	0x3ded1dbc	0.11577937
25	0x3e820162	0.2539168
26	0xbd94e7c5	-0.07270769
27	0xbe1e9e5a	-0.15490094
28	0xbe28f7ab	-0.16500728
29	0xbddf6feb	-0.109100185
30	0x3cc46a4e	0.023976471
31	0x3e30c10d	0.17261143
32	0x3d264221	0.04059041
33	0x3e1cb254	0.15302402
34	0x3bef8b80	0.007310331
35	0x3da7dd87	0.0819655
36	0x3dd9a972	0.10628022
37	0x3dd1f1ac	0.102511734
38	0x3d971e61	0.07378841
39	0x3e61ea72	0.2206209
40	0x3e561cf1	0.20909478
41	0x3e4ff16a	0.20306936
42	0x3d0fab89	0.035075698
43	0x3d9d9920	0.07695222
44	0xbe755016	-0.23956332
45	0x3dba3479	0.090920396
46	0x3deb71f0	0.11496341
47	0x3eab72fc	0.33486164
48	0xbcd1edc1	-0.025626065
49	0xbe3f1d3a	-0.18663493
50	0xbed0e668	-0.40800786
51	0x3c290920	0.010317117
52	0xbe7cb844	-0.24679667
53	0xbe69190c	-0.22763461
54	0x3d521cc2	0.051296957
55	0x3dfe2dbc	0.12411067
56	0x3c811814	0.015758552
57	0x3ca56d00	0.020193577
58	0x3e03ac18	0.12858617
59	0x3d0aefda	0.033920147
60	0xbd922082	-0.071351066
61	0xbddbd14c	-0.107332796
62	0x3e032334	0.12806398
63	0x3e456e4e	0.19280359
64	0xbca03a65	-0.019559095
65	0xbd49919e	-0.049211137
66	0xbe8659fb	-0.26240525
67	0xbe2bcdcd	-0.16777726
68	0xba995471	-0.0011698139
69	0x3e020f93	0.12701254
70	0x3e668660	0.22512197
71	0x3e05f852	0.13083008
72	0x3db23767	0.087019734
73	0xbce4ee23	-0.027945584
74	0xbe10162a	-0.14070955
75	0x3d75e6bc	0.0600345
76	0xbe46056e	-0.19338009
77	0x3e2e7bc3	0.17039399
78	0xbe0195f2	-0.12654856
79	0x3e561633	0.20906906
80	0x3b4ef703	0.0031580336
81	0x3e4c7194	0.19965202
82	0xbe7f7c59	-0.24949779
83	0x3d8fdc98	0.07024497
84	0xbe68ac44	-0.22721964
85	0xbe20ecdc	-0.15715355
86	0x3c23d7d6	0.01000019
87	0x3c395276	0.011311164
88	0xbba2e350	-0.0049709454
89	0x3e6ab710	0.22921395
90	0x3e896ccd	0.2684082
91	0x3e0c5252	0.13703278
92	0xbd252637	-0.040319648
93	0x3dce1fee	0.10064684
94	0x3e9479d6	0.28999203
95	0xbc1ca14b	-0.00955994
96	0x3dc7f65a	0.09763785
97	0x3d825507	0.06363874
98	0xbe429940	-0.19003773
99	0x3d554bb8	0.052074164
100	0x3ea6e4a0	0.32596302
101	0x3ea67c67	0.32516786
102	0x3cdf7a72	0.027280066
103	0xbe6e9ae8	-0.2330128
104	0xbe4eb72e	-0.20187065
105	0xbd89ed9b	-0.06734773
106	0xbddc43c1	-0.107551105
107	0xbe740683	-0.23830609
108	0x3dc97074	0.09835902
109	0xbd1a8d78	-0.03773257
110	0xbd8087f2	-0.062759295
111	0xbe637c50	-0.2221539
112	0xbdadd920	-0.08488679
113	0x3dddbd10	0.108270764
114	0x3dd5b3a2	0.10434653
115	0x3c118cd6	0.008883676
116	0x3e569dd3	0.20958643
117	0x3e8c9214	0.274552
118	0xbe3d145d	-0.18464799
119	0x3dfad3b6	0.12247412
120	0x3d1fcadc	0.03901182
121	0x3e1f8849	0.15579332
122	0x3daf9118	0.08572596
123	0x3e1a5e61	0.15075065
124	0xbdd07cc3	-0.101800464
125	0x3ca46fa8	0.020072773
126	0xbe3619ed	-0.17783327
127	0xbd553899	-0.05205593
128	0x3dd79742	0.10526897
129	0x3e4f70e0	0.20257902
130	0x3e9137c1	0.2836285
131	0x3e76c53e	0.2409868
132	0x3e2048ca	0.15652767
133	0x3cb12262	0.02162284
134	0xbe4dd2a6	-0.20099887
135	0x3d886f26	0.06661825
136	0xbd9a450b	-0.075327
137	0xbdb898a6	-0.090134904
138	0x3e1d2f6b	0.1535012
139	0x3e27d22f	0.16388772
140	0xbcffedc0	-0.031241298
141	0x3d8f4139	0.06994862
142	0xbe9145fe	-0.28373712
143	0x3e6409ea	0.22269407
144	0x3d90d0c8	0.07071072
145	0xbe2381c1	-0.15967466
146	0x3d6eff1f	0.05834877
147	0xbe38103a	-0.1797494
148	0x3cb33755	0.02187697
149	0x3c9b5b60	0.01896447
150	0x3e036095	0.12829812
151	0xbd1cea0e	-0.03830915
152	0xbd8dbeb2	-0.06921138
153	0xbe18d2d3	-0.14924173
154	0x3e4b856c	0.19875115
155	0xbd251fce	-0.040313534
156	0x3d6ae55f	0.05734765
157	0xbc6e9300	-0.014561415
158	0xbe422795	-0.18960412
159	0xbe1802ac	-0.14844769
160	0xbe63bcc6	-0.2223998
161	0x3e6a3a73	0.22873859
162	0xbdbadb97	-0.09123915
163	0x3dd89559	0.10575361
164	0x3e2bc7dd	0.1677546
165	0x3e215045	0.15753277
166	0xbe453867	-0.19259797
167	0x3e22ee40	0.15911198
168	0xbcc4b8de	-0.024013933
169	0xbdb205ed	-0.086925365
170	0xbe8c4f53	-0.2740427
171	0x3e1a599e	0.15073249
172	0xbc997207	-0.01873113
173	0x3e06c40a	0.1316072
174	0x3e27d2d2	0.16389015
175	0x3dc3f6b6	0.09568541
176	0xbdad3952	-0.084581986
177	0x3cfeebd1	0.031118305
178	0x3e015a09	0.12632002
179	0xbc070a77	-0.008242241
180	0x3e0adcc7	0.13560782
181	0xbe5509c8	-0.20804513
182	0xbbf622a8	-0.0075114556
183	0x3e312862	0.17300561
184	0x3d65dc71	0.056118432
185	0x3c29b1c3	0.010357323
186	0xbd28e191	-0.041230742
187	0xbdbd31aa	-0.09237988
188	0x3e6b2a48	0.22965348
189	0xbe32a2e1	-0.17444946
190	0xbc25e663	-0.010125729
191	0xbd251f5f	-0.04031312
192	0x3e3bf8bb	0.18356602
193	0xbe25c31e	-0.16187713
194	0x3e7b05ae	0.24513885
195	0xbe329800	-0.17440796
196	0xbe6c67fc	-0.23086542
197	0x3e0492bb	0.12946598
198	0x3cc68513	0.024233377
199	0x3e283cc3	0.16429429
200	0x3e27f5e2	0.1640239
201	0xbe26ea07	-0.16300212
202	0x3ddca1ef	0.10773074
203	0x3dfc62ca	0.1232353
204	0xbe107ff4	-0.1411131
205	0x3cb06152	0.021530781
206	0xbde80ec1	-0.11330939
207	0x3e1a19cb	0.15048902
208	0xbe0fba79	-0.14035977
209	0xbb33514f	-0.0027361696
210	0x3dd88c42	0.10573627
211	0xbdb994b4	-0.09061566
212	0x3e1b3791	0.15157916
213	0xbe04024a	-0.12891498
214	0x3b8fdeb6	0.004390563
215	0xbda941cd	-0.08264504
216	0xbdd5e4ff	-0.10444068
217	0xbd7cee99	-0.061750982
218	0xbe35e089	-0.17761435
219	0xbe3b1a71	-0.18271805
220	0x3c43e352	0.011956053
221	0xbd389b85	-0.04507019
222	0x3e5e0d0b	0.21684663
223	0xbe764f7c	-0.24053758
224	0x3e60b714	0.21944839
225	0x3e29880d	0.16555806
226	0xbda4e9af	-0.08052384
227	0xbd7c3e06	-0.061582588
228	0x3d5e9518	0.054341406
229	0xbe29fc54	-0.16600162
230	0xbcbc4bd7	-0.022985382
231	0x3e6b20a5	0.22961672
232	0xbca7dc81	-0.020490887
233	0xbded62a6	-0.11591081
234	0x3c056749	0.008142301
235	0x3d97639f	0.07392048
236	0xbd90dbeb	-0.07073196
237	0xbe1f0c0a	-0.15531936
238	0xbdb60f87	-0.0888968
239	0xbdfed7a4	-0.12443474
240	0xbd88c7b6	-0.06678717
241	0x3e71b6c7	0.2360488
242	0xbe14517d	-0.1448421
243	0xbe039d44	-0.12852961
244	0x3e1768e9	0.14786114
245	0xbdec0830	-0.11524999
246	0xbe116f71	-0.14202668
247	0x3d1139de	0.035455577
248	0xbdf73483	-0.12070563
249	0x3d9acd51	0.07558692
250	0xbeb270c6	-0.34851664
251	0x3b0006c3	0.001953528
252	0xbe24aeaa	-0.16082254
253	0x3d1d7e0c	0.038450286
254	0xbe87bf05	-0.26512924
255	0xbd5a2f03	-0.05326749

hidden.bias f4 [128]
0	0xbd9404c0	-0.072274685
1	0xbdb7cb95	-0.08974377
2	0xbe16df7b	-0.14733689
3	0x3c20ef8c	0.009822737
4	0x3e330596	0.174826
5	0xbc17e6e9	-0.009271362
6	0x3c0a0b1d	0.008425501
7	0x3d3e9f07	0.04653838
8	0x3e7dfa1a	0.24802437
9	0xbd38fb0c	-0.045161292
10	0x3e1a4a86	0.15067491
11	0x3e0dafa5	0.13836534
12	0xbdd72083	-0.10504248
13	0xbdd7d444	-0.10538533
14	0xbe9f1798	-0.31072688
15	0x3c47a330	0.012184903
16	0x3e7080a0	0.23486567
17	0xbdd7bd5c	-0.10534164
18	0xbe522b71	-0.20524384
19	0x3e245968	0.16049731
20	0xbe53e2c8	-0.20691979
21	0xbe9660c4	-0.293707
22	0xbdbfe0c6	-0.09369044
23	0xbe056c2f	-0.1302955
24	0xbe4b357d	-0.19844623
25	0x3d22dfdf	0.03976428
26	0x3d0f4352	0.03497631
27	0x3d282317	0.04104909
28	0x3d70e93e	0.058816187
29	0xbd27b85f	-0.040947314
30	0xbdb2f409	-0.08737952
31	0xbdfd5e0c	-0.12371454
32	0x3e0c791e	0.13718078
33	0x3e985a42	0.2975636
34	0x3e54a5f0	0.20766425
35	0x3e4c09c0	0.19925594
36	0xbe407426	-0.18794307
37	0x3d3c12fe	0.04591655
38	0xbe807dc4	-0.25095952
39	0xbdeeca44	-0.11659673
40	0xbdd98de5	-0.10622767
41	0x3e545259	0.20734538
42	0x3ea06a0b	0.31330904
43	0x3e4bf296	0.19916758
44	0xbe6a03bd	-0.22852989
45	0x3e807825	0.25091663
46	0xbe2df85a	-0.1698927
47	0x3b82fae7	0.003997195
48	0x3e888ae4	0.26668465
49	0x3bd67346	0.0065445034
50	0xbec6b0ef	-0.38806865
51	0xbe8be8d2	-0.27326065
52	0x3e9f0e33	0.3106552
53	0xbe8fe574	-0.28104746
54	0xbe0a5742	-0.13509849
55	0x3e34c651	0.17653777
56	0x3dd3038c	0.10303411
57	0x3da012a0	0.078160524
58	0x3cbdd95c	0.023174934
59	0x3deeb357	0.116553
60	0xbe5c7685	-0.21529587
61	0xbd875b94	-0.06609264
62	0x3dd742b6	0.10510771
63	0x3db39f80	0.087706566
64	0x3e10b33f	0.14130877
65	0xbe0da124	-0.13831002
66	0x3ce3163f	0.027720569
67	0xbe84ab72	-0.25912052
68	0xbddc3345	-0.107519664
69	0x3de45e85	0.11150841
70	0xbe0e13b3	-0.13874702
71	0x3c7adb28	0.01531104
72	0xbe7e1606	-0.24813089
73	0xbe1a6261	-0.15076591
74	0x3e89a883	0.26886377
75	0xbe5f0085	-0.21777542
76	0xbda1d299	-0.079014964
77	0xbeb4a38d	-0.3528103
78	0xbde4ea97	-0.11177557
79	0x3d73a0d5	0.059479553
80	0xbdb96fb5	-0.090545096
81	0x3e04d431	0.1297157
82	0xbe3c2e07	-0.18376933
83	0xbe0d6e6f	-0.13811658
84	0xbe919277	-0.28432056
85	0xbe103b23	-0.14085059
86	0xbe42b215	-0.19013245
87	0x3a69004a	0.00088882877
88	0x3daaa1ec	0.083316654
89	0x3ba6e2ab	0.005092939
90	0xbd5b11cd	-0.053483773
91	0x3e11639c	0.14198154
92	0x3e45a239	0.19300164
93	0x3db39da2	0.087703004
94	0x3e457e86	0.19286546
95	0xbe2ef528	-0.17085707
96	0x3cb4d122	0.022072379
97	0x3d364ead	0.044508625
98	0x3ddd3f5f	0.10803103
99	0xbe955236	-0.29164284
100	0xbd986f4c	-0.07443103
101	0xbd8f7808	-0.07005316
102	0x3e6a5f7e	0.2288799
103	0xbd854c6f	-0.06508719
104	0x3c70a5e2	0.014687987
105	0xbcf4466c	-0.029818736
106	0xbdd81e96	-0.10552709
107	0xbe601801	-0.21884157
108	0x3dd13528	0.10215217
109	0x3e609b94	0.21934348
110	0xbe047de9	-0.12938656
111	0xbe3f1b60	-0.18662786
112	0x3d321d61	0.04348505
113	0xbe4ba22e	-0.19886085
114	0x3d1ad95c	0.037804946
115	0x3e5075ac	0.20357388
116	0x3e339a50	0.17539334
117	0xbe3ad606	-0.18245706
118	0x3d9ff083	0.07809546
119	0x3c926248	0.01786913
120	0x3e351b43	0.17686181
121	0xbd96e828	-0.07368499
122	0xbca83050	-0.02053085
123	0xbe06ba3f	-0.13156985
124	0xbe33fa8e	-0.17576048
125	0x3e084d06	0.13310632
126	0x3c1f8dd6	0.009738406
127	0xbe7ad52a	-0.24495378

output.weight f4 [29, 128]
0	0xbc5f5c57	-0.013632855
1	0xbd1e9231	-0.038713638
2	0x3d175be5	0.03695287
3	0x3d96acdb	0.07357188
4	0x3c8bb848	0.017055646
5	0xbca10b51	-0.019658716
6	0xbd7eb618	-0.062185377
7	0x3dcadd89	0.09905536
8	0xbd04e6f0	-0.0324468
9	0xbd334992	-0.043771334
10	0xbcf73185	-0.03017498
11	0xbca905d9	-0.020632671
12	0x3d02556d	0.03181975
13	0xbd4153a5	-0.04719891
14	0x3d6cd092	0.057816096
15	0x3d82d65e	0.063885435
16	0xbc8d6eab	-0.017264685
17	0x3d2ac5de	0.041692607
18	0x3c37f32c	0.01122741
19	0xbc28898f	-0.010286703
20	0x3d5382fd	0.051638592
21	0x3d7878d4	0.060662106
22	0xbc81476f	-0.015781133
23	0x3de379da	0.11107226
24	0x3d352082	0.044220455
25	0x3d2b1091	0.041763846
26	0x39996b4e	0.00029262382
27	0x3cc93b0a	0.024564285
28	0x3bbcfd1e	0.0057674786
29	0x3d4c5145	0.049882192
30	0x3d0e6f36	0.034774028
31	0x3c8b77cb	0.017024895
32	0x3d7ad96d	0.06124251
33	0x3b238db6	0.0024956292
34	0x3c16ea0c	0.009211075
35	0xbd5e9b6d	-0.054347444
36	0xbc19e7fa	-0.009393686
37	0x3b7fa18e	0.0039006206
38	0xbc45d36e	-0.012074335
39	0x3c96ea06	0.018422138
40	0xbd169233	-0.03676052
41	0x3b45690f	0.0030122434
42	0x3da9ab90	0.08284676
43	0x3b9b88bb	0.004746524
44	0x3d835d30	0.064142585
45	0xbbb985b9	-0.005661693
46	0xbd4177b2	-0.04723329
47	0x3c533185	0.012890224
48	0xbc0824ee	-0.008309586
49	0xbcc4baa2	-0.024014775
50	0xbd014774	-0.031562284
51	0x3c9f1d8b	0.019423267
52	0x3cf84698	0.0303071
53	0x3d2b2021	0.041778687
54	0xbcaf3ad6	-0.02139036
55	0xbd78403b	-0.06060813
56	0x3bf3d24d	0.0074408413
57	0xbd8e7a3c	-0.06956908
58	0x3d669ca1	0.056301717
59	0x3d0127cf	0.031532105
60	0xbc12d78e	-0.008962525
61	0x3d7d6e4c	0.061872765
62	0xbb487fa0	-0.0030593649
63	0xbceb998d	-0.028759742
64	0xbd180fc5	-0.037124414
65	0xbd07a904	-0.03312017
66	0x3c61d081	0.013782621
67	0xbd3959a7	-0.045251515
68	0x3c83949a	0.01606207
69	0x3c91be3b	0.017790904
70	0xbcd32afd	-0.025777334
71	0x3d1c0004	0.038085952
72	0xbbaa5f54	-0.0051993523
73	0xbc00d1be	-0.007862506
74	0x3cdd4133	0.027008628
75	0x3d4a963c	0.04945968
76	0xbda28a6d	-0.07936559
77	0xbd797a24	-0.060907498
78	0x3d4f7e92	0.050657816
79	0xbd0ae41a	-0.03390894
80	0xbcf61cf8	-0.03004311
81	0x3d505c3a	0.050869204
82	0x3c9b14d1	0.018930824
83	0x3d074932	0.03302879
84	0x3d4e633d	0.05038761
85	0x3d6d9b12	0.058009215
86	0xbd92a103	-0.07159617
87	0x3d45922b	0.0482351
88	0x3d9537e5	0.07286052
89	0x3d44b181	0.048020843
90	0xbbccd020	-0.0062503964
91	0x3d66f478	0.056385487
92	0x3cd30166	0.025757503
93	0x3d4f95c7	0.05067995
94	0x3da21544	0.07914212
95	0x3b2eca09	0.0026670715
96	0x3a2e7666	0.0006655216
97	0x3c8dc980	0.017307997
98	0x3d0eaf79	0.034835313
99	0xbca47bc5	-0.02007855
100	0xbc235551	-0.0099690715
101	0x3b0a5a1e	0.0021110843
102	0x3d93e8ee	0.07222162
103	0xbd6b769d	-0.057486165
104	0xbd0929ba	-0.03348706
105	0x3d396fa2	0.045272477
106	0x3c9a240a	0.018816013
107	0x3ce75ac0	0.028241515
108	0x3d599b07	0.05312636
109	0x3d1ad6fc	0.03780268
110	0xbd58cf64	-0.052932158
111	0x3cbcd464	0.023050494
112	0xbd0edc2c	-0.03487794
113	0x3cd8ac78	0.026449427
114	0x3c01c998	0.007921599
115	0x3ca1d975	0.019757012
116	0x3d40554c	0.046956345
117	0xbd0db082	-0.03459216
118	0x3d51c2fa	0.051211335
119	0x3cedd6bd	0.02903306
120	0x3d373078	0.044723958
121	0xbd376702	-0.04477597
122	0xbd2d046f	-0.042240556
123	0x3cc25e8c	0.023726724
124	0x3d8b5b7c	0.06804559
125	0x3c2e575a	0.010640943
126	0xbd85c3bc	-0.06531474
127	0xbc8f2862	-0.01747531
128	0xbd7a75b1	-0.061147396
129	0xbd6bb1e9	-0.057542715
130	0xbdc0ec6d	-0.09420095
131	0xbdbcf9fd	-0.09227369
132	0x3d381dee	0.04495042
133	0xbd6d4be0	-0.05793369
134	0x3d1dde2b	0.038541954
135	0x3b2e10ef	0.0026560386
136	0x3d02545f	0.031818744
137	0xbdc00596	-0.093760654
138	0x3d77ed98	0.06052932
139	0xbda4723a	-0.080295995
140	0x3c17d6cf	0.009267523
141	0x3ccfa3fa	0.025346745
142	0xbd3cfa78	-0.046137303
143	0x3d6edf1f	0.058318254
144	0x3d804afa	0.06264301
145	0x3d4b00d2	0.04956133
146	0x3d0ed116	0.03486737
147	0xbdb25cb6	-0.087090895
148	0xbddc8b2e	-0.10768734
149	0xbd01b05a	-0.031662323
150	0xbc68163f	-0.01416546
151	0x3b9897a8	0.0046567507
152	0x3cdeada0	0.0271824
153	0x3d539836	0.05165883
154	0x3be49c16	0.0069766147
155	0x3d12d848	0.035850793
156	0xbd8f8987	-0.07008653
157	0xbd1e7ed1	-0.03869516
158	0x3cae1ae8	0.021253064
159	0xbc2c6025	-0.0105209695
160	0xbdb82771	-0.08991898
161	0xbc8f0ba6	-0.01746161
162	0x3db7a530	0.08967054
163	0xbd537632	-0.05162639
164	0xbd96ed99	-0.07369537
165	0xbd3a3650	-0.045461953
166	0xbdb50179	-0.088381715
167	0x3d486003	0.04891969
168	0xbd31d77b	-0.04341839
169	0x3c879ede	0.016555246
170	0xbdcc7cb5	-0.099847235
171	0xbd4b9907	-0.049706485
172	0xbce1c762	-0.027560893
173	0xbdb2c051	-0.08728088
174	0xbdbe4dae	-0.0929216
175	0x3d369fbe	0.044585936
176	0xbcfe22cc	-0.031022452
177	0x3d12336f	0.035693582
178	0x3cd353db	0.025796821
179	0xbd2e0abd	-0.04249071
180	0x3d1435c0	0.036184072
181	0x3d4dfbf2	0.050289102
182	0xbc1c4ce8	-0.00953982
183	0xbca42173	-0.020035481
184	0x3d217af2	0.03942389
185	0xbd0cca99	-0.0343729
186	0x3d5ee9dd	0.05442225
187	0x3dae9642	0.08524753
188	0x3d927430	0.07151067
189	0x3d6a4da9	0.05720297
190	0xbd89b10d	-0.06723223
191	0xbd29b843	-0.04143549
192	0x3c08cab9	0.008349114
193	0xbd75ae5e	-0.059980743
194	0xbd294ad1	-0.041331116
195	0x3ca7d64a	0.020487923
196	0xbc23575f	-0.009969561
197	0x3d00d801	0.031455997
198	0xbd57b8db	-0.052666526
199	0xbd297399	-0.04137001
200	0x3d16cb8e	0.03681522
201	0xbce28fe6	-0.027656507
202	0x3c853044	0.016258366
203	0xbb52b221	-0.003214963
204	0x3d33b434	0.043873027
205	0xbdeadd85	-0.11468033
206	0x3d4d15f8	0.05006978
207	0x3d81218b	0.06305226
208	0x3d30d26e	0.04316943
209	0xbdb6658c	-0.08906087
210	0x3cd6bdaf	0.026213495
211	0xbdb25efd	-0.08709524
212	0xbbbe2547	-0.0058027836
213	0x3ade0c19	0.0016940861
214	0xbdb3bf7d	-0.08776758
215	0xbbf61790	-0.007510133
216	0x3d4e5d63	0.05038203
217	0xbb84a028	-0.0040474124
218	0xbdb23f3d	-0.08703468
219	0x3c7f33fe	0.015576361
220	0xbca40f81	-0.020026924
221	0x3c90fa36	0.017697435
222	0xbd96c84c	-0.07362422
223	0x3d93c468	0.07215196
224	0xbd0ebc74	-0.03484769
225	0x3d2b2af1	0.041789
226	0xbca48752	-0.020084057
227	0x3d2359cd	0.039880563
228	0xbdd49fe1	-0.10382057
229	0x3cd88a93	0.026433265
230	0xbc3f270a	-0.0116670225
231	0x3c0a0a2c	0.008425277
232	0x3d6e5ad6	0.058192097
233	0xbde3d911	-0.111253865
234	0x3c17ffdc	0.00927731
235	0x3af79c23	0.0018891137
236	0x3c9c96aa	0.019114811
237	0xbd49a5f8	-0.049230546
238	0x3c94198b	0.018078586
239	0xbc69a53e	-0.014260588
240	0xbcc0b58c	-0.023524068
241	0x389aadbc	7.375653e-05
242	0x3cbec86e	0.023288932
243	0xbc53f371	-0.012936459
244	0x3c9dafc0	0.019248843
245	0xbd493b70	-0.04912895
246	0xbd967729	-0.07346947
247	0xbae56aa4	-0.0017503095
248	0xbccb2019	-0.024795579
249	0x3b04099b	0.0020147327
250	0x3cdea5fa	0.027178753
251	0xbcb0f7c7	-0.021602524
252	0x3c9898b4	0.018627502
253	0xbd45e086	-0.048309825
254	0x3d081550	0.03322345
255	0x3da2b34f	0.07944357

output.bias f4 [29]
0	0x3d2b0775	0.04175516
1	0xbd238117	-0.03991803
2	0x3ccbfb70	0.024900168
3	0xbd9745c8	-0.073863566
4	0xbbc32073	-0.005954796
5	0x3e1c948b	0.1529104
6	0xbe02774c	-0.1274082
7	0x3d91380f	0.070907705
8	0x3cac96b5	0.021067956
9	0xbcf3e5e9	-0.029772716
10	0xbe066e2b	-0.13127963
11	0xbba17306	-0.004927042
12	0xbdc8a9f1	-0.09798039
13	0x3c5b1793	0.01337232
14	0x3d98af58	0.07455319
15	0xbdc4c7d8	-0.0960843
16	0xbd899a55	-0.067188896
17	0xbe52f0cf	-0.20599674
18	0xbdfa6f90	-0.1222831
19	0x3dc89bf8	0.09795374
20	0xbb60cba1	-0.003430106
21	0x3d327f44	0.0435784
22	0xbe359910	-0.1773417
23	0xbd08f09c	-0.033432588
24	0xbdb13860	-0.08653331
25	0x3c823061	0.01589221
26	0x3e0c88dc	0.13724083
27	0xbc38635f	-0.011254161
28	0x3e25d6d8	0.16195238
